app/src/main/assets/automobile.tflite (tflite, 21408 bytes, 5 tensors)

sequential_3/dense_13/BiasAdd/ReadVariableOp f4 [64]
0.08417424 -0.027488742 -0.019364009 -0.03711469 0.058421634 0.08284263 0.080602035 0.08470553
0.094470926 0.0831687 0.089919694 -0.034966134 0.086220235 0.084570184 0.08636924 0.035541285
0.08404661 -0.026404599 0.08814347 0.09285827 0.08984741 -0.018587863 -0.0009419348 -0.022180444
-0.027333248 0.06357152 -0.050296035 -0.13537243 0.14604013 0.08962921 -0.05621815 0.0
-0.062493116 -0.028246967 0.087961145 0.08374883 -0.02776435 0.09311397 0.060765658 -0.021179473
-0.053478774 0.09022045 0.03326613 0.083262645 -0.015990952 0.09205693 0.051004674 0.15256022
0.08751286 0.097384326 0.085946605 -0.046765704 -0.053853583 -0.079979144 -0.07546377 0.087415524
0.08729095 0.20595005 0.08331662 -0.07462028 0.033455607 0.083861835 0.0907628 0.08964531
00000000: 8b63 ac3d 1230 e1bc 45a1 9ebc 9305 18bd
00000010: 864b 6f3d 66a9 a93d ae12 a53d 187a ad3d
00000020: f979 c13d 5a54 aa3d d127 b83d a638 0fbd
00000030: 3c94 b03d 2233 ad3d 5be2 b03d bd93 113d
00000040: a120 ac3d 754e d8bc 9084 b43d 7a2c be3d
00000050: eb01 b83d 9345 98bc 2dec 76ba c3b3 b5bc
00000060: fae9 dfbc c931 823d 3703 4ebd 129f 0abe
00000070: 8b8b 153e 858f b73d 0145 66bd 0000 0000
00000080: c8f8 7fbd 2f66 e7bc f924 b43d 8284 ab3d
00000090: 1072 e3bc 89b2 be3d 69e5 783d 9380 adbc
000000a0: 8f0c 5bbd 80c5 b83d 1142 083d 9b85 aa3d
000000b0: 75ff 82bc 5888 bc3d 47ea 503d bf38 1c3e
000000c0: f139 b33d 6f71 c73d c604 b03d 658d 3fbd
000000d0: 9395 5cbd 1bcc a3bd c08c 9abd e906 b33d
000000e0: 99c5 b23d 92e4 523e e7a1 aa3d 84d2 98bd
000000f0: bf08 093d c1bf ab3d d9e1 b93d f697 b73d

sequential_3/dense_12/BiasAdd/ReadVariableOp f4 [64]
0.107037984 -0.07185672 0.06107209 0.1169496 0.34440184 -0.053914297 0.20957755 0.08029994
0.050528005 0.10444404 0.297354 0.10336156 0.15159872 0.24337696 0.042186465 0.08356571
0.05650631 0.071953334 0.10828025 0.1416104 0.10508011 0.25914645 0.060048874 0.003957381
0.04077373 0.34109947 0.13644081 -0.021206906 0.07058838 0.0045560105 0.14070939 0.092297226
0.1733716 0.06338813 0.12463471 0.17441027 0.14732021 0.051697582 0.43407023 0.09194625
0.21592924 0.13027278 0.16372514 -0.11873412 0.18312131 0.23896892 -0.014005669 0.016268997
0.15148485 0.06608258 0.07400637 0.14081648 0.040157784 0.13369669 0.21127646 0.03186434
0.16031966 0.40607673 0.13462174 0.21139027 0.04295552 0.22830385 0.27943963 -0.014125348
00000000: bb36 db3d 9e29 93bd ba26 7a3d 4683 ef3d
00000010: 7055 b03e 3dd5 5cbd 7f9b 563e 4c74 a43d
00000020: 74f6 4e3d c2e6 d53d c93e 983e 3aaf d33d
00000030: b23c 1b3e cf37 793e b7cb 2c3d 8024 ab3d
00000040: 2973 673d 455c 933d 09c2 dd3d 5102 113e
00000050: 3e34 d73d d8ae 843e cff5 753d ebac 813b
00000060: 5b02 273d 97a4 ae3e 24b7 0b3e 1bba adbc
00000070: a490 903d 964a 953b 1f16 103e 5406 bd3d
00000080: 5388 313e a3d1 813d 7c40 ff3d 9b98 323e
00000090: 1cdb 163e d8c0 533d 743e de3e 514e bc3d
000000a0: 8e1c 5d3e 3a66 053e 90a7 273e e02a f3bd
000000b0: 2784 3b3e 45b4 743e 0978 65bc 8f46 853c
000000c0: d81e 1b3e 4e56 873d a790 973d 3232 103e
000000d0: 7d7c 243d c9e7 083e db58 583e 2f84 023d
000000e0: d62a 243e 4ae9 cf3e 48da 093e b176 583e
000000f0: 21f2 2f3d 7cc8 693e b612 8f3e 016e 67bc

sequential_3/dense_12/MatMul f4 [64, 9]
-0.44919768 0.08409226 -0.16495383 -0.13536584 0.13889255 0.29475874 -0.22851774 0.29833233
0.24332535 -0.05879078 -0.068791196 -0.297205 0.18581763 0.0074111447 0.3985453 0.04909052
-0.029655442 0.24674049 0.021885034 -0.15699399 0.038266573 0.116913155 0.001997766 0.23650208
0.027274713 0.08980674 -0.24445824 0.09964681 -0.56648386 -0.13809706 0.21422015 -0.18474099
-0.24629666 0.1646918 -0.36117682 0.27561688 0.052457035 -0.28461492 0.24987265 0.17743799
-0.18520626 -0.49926794 0.251763 0.01869868 -0.26580045 0.25070179 -0.31180564 -0.25812614
-0.53473306 0.3736557 0.19512725 -0.066726975 -0.052153874 -0.13953677 -0.28890368 0.46246916
-0.08226277 0.19289616 0.1315177 -0.08228786 -0.1348262 -0.3718231 0.26177776 -0.31242245
0.8155611 -0.17674299 -0.17600574 -0.03728235 -0.32063523 0.24153344 -0.06822593 -0.058504846
0.35180876 -0.28443462 -0.23756127 -0.24683861 0.16485485 0.71126276 0.1202294 -0.26898068
-0.23132049 -0.0055995886 0.2528852 -0.0006615132 -0.30635494 -0.063804656 0.00054522394 0.009510758
-0.23615 0.20578456 0.47225383 -0.25528347 -0.35067895 -0.1605811 -0.15481265 0.5490882
-0.0910104 0.026518084 -0.34309068 -0.022823226 -0.051527474 -0.16619119 -0.056306098 0.3115382
0.06979069 0.406561 -0.53178 -0.16576006 -0.32303157 -0.3737163 0.17607255 -0.15881293
-0.28935486 -0.26783463 -0.018805875 -0.111133724 0.19262545 -0.028435059 0.515102 0.025893442
0.19132811 -0.41963682 -0.3957891 0.36239326 -0.32591575 0.15196583 -0.211401 -0.46564528
-0.27584338 -0.35986254 -0.3461248 -0.08835678 -0.461823 0.33102325 0.28734133 0.039699063
-0.34035656 0.46692526 0.47495484 0.32595715 0.034991276 -0.2338151 0.38078725 -0.3341635
-0.01757422 0.3705538 -0.23092765 0.084233984 0.047130845 0.42350426 0.34292927 -0.26320323
-0.3093405 -0.16566646 -0.5128544 0.1552591 0.023582827 0.2783334 -0.2597996 -0.2947823
-0.12898763 -0.19960019 0.18966843 -0.2694348 -0.3088328 -0.31809717 0.423682 0.64112514
0.05263957 0.33753192 -0.1944182 0.15163736 -0.19453585 0.22306858 0.12776412 0.038317066
-0.06563528 -0.051380932 -0.39540413 0.32981643 0.10623218 0.17904769 0.21304217 -0.37910867
0.24579956 0.066655554 0.2770235 0.2426349 -0.2735239 0.12839074 -0.58065933 -0.17648724
0.2905213 0.050524317 -0.11948228 0.17056417 -0.10503095 -0.4324174 -0.2571098 0.68574136
0.08640497 -0.5309479 0.23651677 -0.023979649 -0.018989002 0.021004109 -0.294037 0.19757143
-0.31959674 -0.020957148 0.12085322 -0.028810453 0.15909043 0.23404597 0.22993545 -0.22538616
0.5390536 -0.03049782 0.096534416 -0.52004004 -0.042575493 0.559786 0.05163888 -0.3172781
0.20199217 -0.074675396 0.46849874 0.29000708 0.0287257 -0.02456674 0.40749258 0.017733099
-0.62756634 -0.2969755 -0.07003086 0.077976495 -0.20004328 -0.17086434 0.2125355 0.21830444
-0.15051784 -0.43627915 0.14657044 -0.24099533 -0.2616105 0.12765057 0.34336463 -0.06143208
-0.13638511 -0.2965503 0.43522844 -0.28163186 -0.07367852 0.06505865 0.110894434 -0.26128948
00000000: 3dfd e5be 9038 ac3d a8e9 28be 589d 0abe
00000010: d939 0e3e 9eea 963e 8e00 6abe 04bf 983e
00000020: 482a 793e 9ace 70bd 66e2 8cbd 412b 98be
00000030: fa46 3e3e 30d9 f23b 210e cc3e 2413 493d
00000040: f8ef f2bc 8aa9 7c3e 3e48 b33c 08c3 20be
00000050: 69bd 1c3d 2a70 ef3d f4ec 023b 9a2d 723e
00000060: 386f df3c 99ec b73d 4353 7abe a013 cc3d
00000070: 1605 11bf 5169 0dbe 875c 5b3e be2c 3dbe
00000080: 3135 7cbe f8a4 283e 2bec b8be a81d 8d3e
00000090: 30dd 563d 0cb9 91be 9ede 7f3e 4eb2 353e
000000a0: b6a6 3dbe 0ca0 ffbe 14e7 803e f92d 993c
000000b0: ff16 88be fc5b 803e fda4 9fbe 1c29 84be
000000c0: 44e4 08bf cd4f bf3e 70cf 473e 27a8 88bd
000000d0: 4d9f 55bd bae2 0ebe 2feb 93be c2c8 ec3e
000000e0: 6279 a8bd 9286 453e 93ac 063e 8a86 a8bd
000000f0: e10f 0abe 995f bebe bc07 863e d6f5 9fbe
00000100: 9dc8 503f 1dfc 34be d93a 34be 61b5 18bd
00000110: 4d2a a4be 8b54 773e 09ba 8bbd c7a2 6fbd
00000120: 4720 b43e 6aa1 91be 4343 73be 43c3 7cbe
00000130: b6cf 283e 5115 363f d53a f63d d6b7 89be
00000140: 47df 6cbe c17c b7bb 2b7a 813e 6669 2dba
00000150: 8eda 9cbe 04ac 82bd 5ced 0e3a 03d3 1b3c
00000160: 4ed1 71be 30b9 523e 41cb f13e 84b4 82be
00000170: 318c b3be 5f6f 24be 3587 1ebe 0b91 0c3f
00000180: a963 babd 743c d93c 95a9 afbe c6f7 babc
00000190: 790e 53bd 062e 2abe 39a1 66bd ef81 9f3e
000001a0: 6cee 8e3d c328 d03e bc22 08bf 01bd 29be
000001b0: 6564 a5be be57 bfbe 5d4c 343e db9f 22be
000001c0: 5226 94be 9f21 89be c70e 9abc 149a e3bd
000001d0: 9b3f 453e a4f0 e8bc badd 033f 7c1e d43c
000001e0: 84eb 433e a3da d6be dea4 cabe 9c8b b93e
000001f0: 6ede a6be ee9c 1b3e 8179 58be 0f69 eebe
00000200: 583b 8dbe e73f b8be 4537 b1be 66f4 b4bd
00000210: 1074 ecbe e17b a93e 671e 933e 7c9b 223d
00000220: 3743 aebe d410 ef3e 482d f33e dbe3 a63e
00000230: 0353 0f3d 3a6d 6fbe 8cf6 c23e 7a17 abbe
00000240: d0f7 8fbc 3ab9 bd3e 4c78 6cbe de82 ac3d
00000250: 460c 413d 8dd5 d83e 6d94 af3e 93c2 86be
00000260: e161 9ebe 78a4 29be 6d4a 03bf 3efc 1e3e
00000270: c630 c13c b781 8e3e 7404 85be b5ed 96be
00000280: 5515 04be fe63 4cbe 7138 423e 5cf3 89be
00000290: 551f 9ebe a2dd a2be d9ec d83e c720 243f
000002a0: 979c 573d fcd0 ac3e 9115 47be d346 1b3e
000002b0: 6834 47be 176c 643e 99d4 023e 5bf2 1c3d
000002c0: ca6b 86bd d074 52bd 6972 cabe b3dd a83e
000002d0: 4290 d93d 4758 373e ba27 5a3e 881a c2be
000002e0: e1b2 7b3e b582 883d 06d6 8d3e 4975 783e
000002f0: 530b 8cbe dd78 033e 17a6 14bf 12b9 34be
00000300: 35bf 943e 96f2 4e3d 20b3 f4bd 60a8 2e3e
00000310: 771a d7bd d065 ddbe e5a3 83be bf8c 2f3f
00000320: 17f5 b03d 34ec 07bf 7431 723e f870 c4bc
00000330: d38e 9bbc cf10 ac3c 058c 96be 2a50 4a3e
00000340: 2fa2 a3be 53ae abbc e581 f73d e603 ecbc
00000350: 9ae8 223e bfa9 6f3e 3374 6b3e a1cb 66be
00000360: 6bff 093f 90d6 f9bc d6b3 c53d 5821 05bf
00000370: a463 2ebd 234e 0f3f 4a83 533d 4672 a2be
00000380: 09d7 4e3e 6aef 98bd 11df ef3e cf7b 943e
00000390: 2952 eb3c 3040 c9bc dea2 d03e 0145 913c
000003a0: 30a8 20bf 2c0d 98be 576c 8fbd 24b2 9f3d
000003b0: 25d8 4cbe 10f7 2ebe e8a2 593e 338b 5f3e
000003c0: 5921 1abe fb5f dfbe 9016 163e 7bc7 76be
000003d0: d0f1 85be d5b6 023e 7dcd af3e 34a0 7bbd
000003e0: 8aa8 0bbe 71d5 97be 43d6 de3e 0d32 90be
000003f0: c4e4 96bd 783d 853d 9f1c e33d bcc7 85be

sequential_3/dense_13/MatMul f4 [64, 64]
0.056178417 0.15567835 -0.010964483 0.21489672 0.36066255 0.20535885 0.21093273 0.22613153
0.09065232 -0.014650386 0.019887995 0.3631181 0.18570617 0.19217397 0.004722296 0.3576492
0.16576186 -0.0699559 0.013117765 0.34728798 -0.14562747 0.08728757 -0.060415775 -0.112962544
0.029733276 0.16214517 0.15186419 0.29874483 0.21565369 0.2042475 -0.06438948 0.10966517
0.5086031 0.19630334 0.010811735 0.29802167 -0.07286749 0.12659416 0.2603628 0.04923454
0.31458896 0.16455038 -0.059524585 0.24513507 0.060470887 0.021041164 0.11010856 0.17984451
0.11075434 0.072979435 0.13224933 0.25485456 0.09105903 0.21351936 0.4615992 0.23161986
-0.020895582 0.07973774 -0.14993477 0.28270173 -0.06891281 0.035265382 0.1559593 0.3442042
0.119830824 0.056258533 -0.058444496 -0.12662621 -0.10940488 0.08248956 -0.1411058 0.11680087
-0.05850694 -0.16475083 0.06077224 0.007390481 -0.2272303 0.007020981 0.15412359 0.13357691
-0.0017723874 -0.19650394 0.0617023 0.18926646 -0.24363433 -0.090096004 0.030131508 -0.1846557
0.14968273 0.04746096 -0.10127268 -0.24374953 -0.025549104 -0.17366034 -0.07205789 0.17529653
-0.20365247 -0.17078324 -0.0116742 0.17900142 -0.2328174 0.08430838 -0.14413613 -0.0774621
-0.10987133 -0.22566189 -0.007495409 0.10154668 -0.20767872 -0.06768644 -0.2049878 0.12578893
0.19316262 -0.016951833 0.13160017 -0.15943256 -0.21400328 0.039607577 0.14940903 -0.20172536
0.09075008 -0.109048225 0.09659285 -0.029007409 -0.06442014 -0.18883163 -0.18388149 0.1576744
-0.21551017 0.12630549 -0.17203401 0.16447492 0.17939146 0.12847957 0.13130894 0.2635401
0.23130405 0.1630171 0.024439609 0.24343075 0.07802331 0.23382631 0.07588794 0.055414528
0.06776569 -0.04787505 0.119475424 0.16277033 -0.16678515 -0.14255647 -0.17208475 -0.16860016
-0.119911544 -0.06529525 0.12189839 0.25307468 -0.12236231 -0.20093906 0.115406424 -0.008648264
0.27622318 0.105049804 -0.013533432 -0.035772312 -0.23199174 0.12428548 0.31683403 -0.102364294
-0.0021104487 0.04962916 -0.119145975 0.14434384 -0.13674289 -0.036176004 0.078659356 0.16935953
-0.17840283 0.15340093 0.08558369 0.34721693 -0.050806336 -0.028110478 0.2609884 -0.05437913
0.116081744 -0.077963084 -0.16401388 0.1843645 0.06148892 -0.09503246 -0.18300682 0.06865246
-0.23968422 -0.031212037 -0.07002607 0.0849848 0.007452603 0.09137936 -0.052458026 -0.18645263
0.049489878 0.1575813 0.04326999 -0.0031235388 -0.22741508 -0.035126008 -0.011302187 0.11410117
-0.105902776 -0.088818386 -0.06908042 0.019301059 -0.23083217 -0.1977716 0.015182167 -0.18041107
-0.09338925 -0.07401643 0.07622552 0.03322185 0.060542867 0.1391304 0.008342516 -0.052247223
-0.2146243 -0.16835266 0.13762276 0.07078853 -0.13810629 -0.035132997 0.135697 0.14870831
-0.0102935685 -0.2406393 -0.023489218 -0.16009861 -0.02427084 -0.11932813 -0.24123877 0.015951619
-0.03275378 -0.12978448 0.121126935 -0.092222475 0.053295568 -0.14495713 -0.0036970715 0.04065926
0.06479927 0.065757304 0.034686845 0.062198743 -0.007247853 -0.13235882 -0.11804234 -0.079239614
00000000: 571b 663d 256a 1f3e 60a4 33bc e30d 5c3e
00000010: c3a8 b83e 9749 523e c0fe 573e 068f 673e
00000020: eca7 b93d 2c08 70bc 26ec a23c 9eea b93e
00000030: c229 3e3e 41c9 443e 7dbd 9a3b cc1d b73e
00000040: 7abd 293e 0a45 8fbd e5eb 563c bbcf b13e
00000050: 5e1f 15be d3c3 b23d 8876 77bd e858 e7bd
00000060: 3393 f33c 6209 263e 4982 1b3e 15f5 983e
00000070: 52d4 5c3e 4226 513e a2de 83bd 2298 e03d
00000080: d033 023f be03 493e b423 313c 4c96 983e
00000090: 8d3b 95bd e6a1 013e 464e 853e 28aa 493d
000000a0: ce11 a13e e57f 283e 0dd0 73bd b004 7b3e
000000b0: 52b0 773d 855e ac3c 9980 e13d 2929 383e
000000c0: 2cd3 e23d 3e76 953d 5e6c 073e 4c7c 823e
000000d0: 287d ba3d d2a4 5a3e bb56 ec3e c22d 6d3e
000000e0: 362d abbc 8a4d a33d 8088 19be 48be 903e
000000f0: 2922 8dbd 6f72 103d cbb3 1f3e 883b b03e
00000100: dd69 f53d 596f 663d 7f63 6fbd 4daa 01be
00000110: aa0f e0bd 49f0 a83d 0a7e 10be 4b35 ef3d
00000120: f9a4 6fbd 71b4 28be 50ec 783d d92b f23b
00000130: 0faf 68be 4210 e63b 93d2 1d3e 63c8 083e
00000140: 744f e8ba 5438 49be 8dbb 7c3d 11cf 413e
00000150: 477b 79be 4184 b8bd 5ad6 f63c 6216 3dbe
00000160: 6e46 193e 6c66 423d 0d68 cfbd 7a99 79be
00000170: 5b4c d1bc 04d4 31be 1693 93bd ef80 333e
00000180: 468a 50be cde1 2ebe 2545 3fbc 264c 373e
00000190: af67 6ebe dfa9 ac3d 6c98 13be 73a4 9ebd
000001a0: 3804 e1bd e913 67be 0c9c f5bb b5f7 cf3d
000001b0: bba9 54be 309f 8abd 52e8 51be d0ce 003e
000001c0: 6ccc 453e 92de 8abc 32c2 063e 4a42 23be
000001d0: ad23 5bbe 8e3b 223d aefe 183e 1891 4ebe
000001e0: 2edb b93d ad54 dfbd 79d2 c53d f2a0 edbc
000001f0: b5ee 83bd 145d 41be 6e4b 3cbe 6675 213e
00000200: b3ae 5cbe 3a56 013e af29 30be 1d6c 283e
00000210: 65b2 373e 2690 033e da75 063e baee 863e
00000220: f8da 6c3e f4ed 263e 9335 c83c e945 793e
00000230: afca 9f3d 2a70 6f3e 236b 9b3d 58fa 623d
00000240: bdc8 8a3d a118 44bd 88af f43d 44ad 263e
00000250: bac9 2abe 53fa 11be fc36 30be 85a5 2cbe
00000260: 2f94 f5bd 84b9 85bd dda5 f93d 0193 813e
00000270: 1799 fabd f8c2 4dbe 345a ec3d 73b1 0dbc
00000280: 206d 8d3e 5a24 d73d 54bb 5dbc fd85 12bd
00000290: 3e8f 6dbe 6389 fe3d 1238 a23e 5fa4 d1bd
000002a0: 744f 0abb f247 4b3d ce02 f4bd dfce 133e
000002b0: 5406 0cbe 4a2d 14bd 2818 a13d 966c 2d3e
000002c0: 3baf 36be 2215 1d3e 8046 af3d 6bc6 b13e
000002d0: 4e1a 50bd f247 e6bc 46a0 853e a7bc 5ebd
000002e0: 44bc ed3d 1cab 9fbd 41f3 27be 0cca 3c3e
000002f0: cedb 7b3d 61a0 c2bd 2466 3bbe a999 8c3d
00000300: c86f 75be 63b0 ffbc d469 8fbd 830c ae3d
00000310: f734 f43b 1a25 bb3d 3ade 56bd 70ed 3ebe
00000320: e6b5 4a3d fe5c 213e df3b 313d 49b4 4cbb
00000330: 80df 68be 4ae0 0fbd cf2c 39bc e0ad e93d
00000340: 8ee3 d8bd 6ae6 b5bd 097a 8dbd 411d 9e3c
00000350: 455f 6cbe a384 4abe a0be 783c aebd 38be
00000360: dd42 bfbd ed95 97bd 201c 9c3d a213 083d
00000370: ccfb 773d 3378 0e3e 0caf 083c 2f01 56bd
00000380: 79c6 5bbe a464 2cbe fbec 0c3e 94f9 903d
00000390: bc6b 0dbe 9ee7 0fbd 28f4 0a3e fe46 183e
000003a0: 5ba6 28bc 266a 76be 766c c0bc e4f0 23be
000003b0: a4d3 c6bc 4e62 f4bd 4c07 77be f8ac 823c
000003c0: d428 06bd 39e6 04be 6611 f83d 23df bcbd
000003d0: 744c 5a3d a46f 14be 914a 72bb 538a 263d
000003e0: 7bb5 843d c4ab 863d cb13 0e3d 1cc4 7e3d
000003f0: 667f edbb 1289 07be 2fc0 f1bd 6148 a2bd

sequential_3/dense_14/MatMul f4 [1, 64]
0.31642753 -0.2073366 0.066086866 -0.20651501 0.3086665 0.33359885 0.20939882 0.2100253
0.3716729 0.23881184 0.16995804 -1.9825785 0.3636697 0.37105864 0.29244432 -1.777028
0.23261178 -0.05385449 0.369678 0.34256673 0.25635076 -0.17781466 -0.65205216 -1.0649148
-0.24431197 -0.4501833 -0.22806151 -1.6685658 -0.7001445 0.3063095 -2.2409587 -0.20729779
-1.1555095 -1.0326048 0.35774007 0.23189303 -0.5872456 0.42097482 0.13023014 -0.6400096
-0.013024461 0.30733672 -0.7149359 0.2961641 -1.2325308 0.31727627 0.11933693 -0.8674839
0.19940768 0.38281226 0.39981842 -0.03978986 -0.118397154 -0.13717206 -1.189937 0.39390275
0.1366931 -2.357626 0.35702446 -0.7369075 -0.42360413 0.21306075 0.4414312 0.30568895
00000000: ca02 a23e 0c50 54be 8d58 873d ac78 53be
00000010: 8909 9e3e 78cd aa3e a56c 563e df10 573e
00000020: e94b be3e 178b 743e 7b09 2e3e 22c5 fdbf
00000030: ea32 ba3e 66fb bd3e 43bb 953e a775 e3bf
00000040: c831 6e3e 8796 5cbd 6f46 bd3e e864 af3e
00000050: 6840 833e 0c15 36be e4ec 26bf 214f 88bf
00000060: eb2c 7abe 6d7e e6be f588 69be 9093 d5bf
00000070: ac3c 33bf 99d4 9c3e de6b 0fc0 df45 54be
00000080: bce7 93bf 652c 84bf b529 b73e 5e75 6d3e
00000090: ba55 16bf 038a d73e 0d5b 053e abd7 23bf
000000a0: 8d64 55bc 3d5b 9d3e 0a06 37bf d2a2 973e
000000b0: 92c3 9dbf 0972 a23e ec66 f43d 6d13 5ebf
000000c0: 8731 4c3e f8ff c33e 00b5 cc3e b1fa 22bd
000000d0: 357a f2bd d576 0cbe db4f 98bf 9fad c93e
000000e0: 47f9 0b3e 58e3 16c0 e9cb b63e f8a5 3cbf
000000f0: a4e2 d8be 992c 5a3e 4503 e23e 4383 9c3e
